models/lenet5_model.pt (torch, 181717 bytes, 10 tensors)

conv1.weight f4 [6, 1, 5, 5]
00000000: 773a e3be 9ea5 0ebe 4699 003c 05fb bf3d
00000010: b57e ebbd 09bd 1bbf 4ae2 963d 9801 a53e
00000020: 311f 753e b53d 81bd 0922 133d 4bb0 413e
00000030: fb2e cf3e cad4 f03d b153 023d 8109 6e3d
00000040: 6651 973e 2982 133e 5580 b93e 197e 84be
00000050: 2811 de3d 44e1 f73d 4a8f 053e af58 7abd
00000060: 3454 33bf 61e0 8d3d 4aad 22be 9401 bc3d
00000070: e052 203b c5bc 83be e19c 423e bb30 083e
00000080: c1e1 7b3e 4760 bebc 0a98 103d 626f 943e
00000090: c5bc 953c af3b 853e f4a4 333e d9da f63d
000000a0: 1994 193d 6bfb 973e 5754 57bd e461 3abd
000000b0: 2261 14be 4a8f bdbb bad9 b8be e9d0 b2be
000000c0: c588 babc d106 ee3d 8875 573e 9c31 a83e
000000d0: 9dc5 aabc 9f5a 18be 5b2e 5abf ee63 fa3d
000000e0: 3bde 27bc 33c2 c7be 5edc 16bf 5f51 c9be
000000f0: 47c4 9c3d 9e47 2fbe 9d52 19bf f1b7 05bf
00000100: 4e45 e73d 3757 afbe 1ea6 e4be f454 06bf
00000110: 54b1 673b e10a a03e 6dd3 13bf d89c dbbe
00000120: 2b09 50be cd41 8a3d 0317 903e e7bd fc3d
00000130: 2ced 9c3d 7664 aebd b8ac 8dbe 2974 8cbd
00000140: fc49 f7bd 7f32 d1bd 4df0 803e 0fcc a5bd
00000150: f7a7 a0bd a869 8cbe 3d45 893d ed20 2c3e
00000160: f9e0 c83e 5621 a93e 814c d0bd 2bee 503d
00000170: f5d7 2e3e ff7e 203e 82de 9b3e 8a90 cc3c
00000180: 35b8 34bd 8872 803e a714 383e 344a 833d
00000190: 8527 873d 1887 47be 4cd0 0dbe 0d81 9c3e
000001a0: 175d 593e afe3 62be 3533 cebe 0186 443e
000001b0: 5c86 b83e 2182 973e a48c a1be 9a0b b7be
000001c0: 181c b73d c5cc e13e 4c2b d93e cb61 adbe
000001d0: bcf7 6bbe 9a5b 0a3e fa5a 413d 78b2 243e
000001e0: 933d 21be 5441 1ebe 8fcb 37be e16d 153e
000001f0: f61b f33c 83ee cbbe 200d 12be cb0e f43d
00000200: 0457 08bd 5891 97bd 9cc3 df3d 6421 d43e
00000210: 8400 8f3e cd29 9d3e b427 b03e c4d4 d33e
00000220: 8300 b13e 81e7 ef3e 6d8d 463e e7a0 ba3e
00000230: 3c8b ef3c 54d1 edbc f67d ebbe ad58 a8be
00000240: bec0 e43d 036e c7be d418 0bbf c94c fabe
00000250: 5fad f6be c282 c3be
-0.44380543 -0.13930365 0.007849043 0.0937405 -0.11498777 -0.6083532 0.0736738 0.32227778
0.2393768 -0.06310598 0.03592113 0.18914907 0.4046553 0.11759336 0.031818096 0.058114532
0.2955429 0.14405121 0.36230722 -0.25877455 0.10843116 0.12103513 0.13042942 -0.06111973
-0.7005036 0.069275625 -0.15886417 0.091799885 0.002446346 -0.25729957 0.19005157 0.13299839
0.24597837 -0.023239268 0.035301246 0.28991228 0.018278489 0.26022097 0.17543393 0.12053461
0.037494753 0.29684004 -0.052570667 -0.045503512 -0.14490178 -0.0057849037 -0.36103612 -0.3492501
-0.022770295 0.11622394 0.21040928 0.3285035 -0.020846182 -0.14878319 -0.8522698 0.12226091
-0.010245855 -0.3901535 -0.58930004 -0.39319894 0.076546244 -0.17117164 -0.5989168 -0.522338
0.11292516 -0.34246227 -0.44657987 -0.5247338 0.0035353499 0.312583 -0.57744485 -0.428931
-0.20315997 0.06750832 0.28142557 0.123409085 0.076624244 -0.08515255 -0.27670836 -0.06858093
-0.12074658 -0.102147095 0.25183335 -0.08095562 -0.07844537 -0.2742436 0.06702659 0.16809435
0.3923414 0.33033246 -0.10170842 0.051008385 0.17074569 0.15673445 0.30443197 0.024971265
-0.044120986 0.2508738 0.17976628 0.064106375 0.065993346 -0.19485128 -0.1384899 0.30567208
0.21226917 -0.22157167 -0.40273443 0.19191743 0.36040008 0.29591468 -0.31552613 -0.3575104
0.08940905 0.4410154 0.42415845 -0.33863673 -0.23043722 0.13511506 0.047205903 0.16083705
-0.15746145 -0.15454608 -0.17948745 0.14592697 0.029676419 -0.39830408 -0.1426282 0.11916884
-0.03328611 -0.07400769 0.109259814 0.41431725 0.2793008 0.30695954 0.3440529 0.41373265
0.34570703 0.4685631 0.19389887 0.36450884 0.029241197 -0.02903048 -0.45994538 -0.32880154
0.11169575 -0.3895112 -0.5433476 -0.48886707 -0.48179147 -0.38185698

conv1.bias f4 [6]
00000000: d5ea 103e d75c 8c3e 82b2 573e c271 8bbe
00000010: cb29 9f3e 6134 ba3e
0.14152081 0.2741458 0.21064189 -0.27235228 0.31086573 0.36368087

conv2.weight f4 [16, 6, 5, 5]
00000000: f84a 38be d7f2 8a3d 475e 60be 746c b5be
00000010: 3eaf 03be c22a 9ebe c33f 79be eea6 7fbe
00000020: 443d e13c 3b08 e03d 2412 d6bd e455 26bb
00000030: 596e 033e 25da cc3d 9308 813d 2acc 203e
00000040: a19a b33d 900f a73d c34b 343c a8ec 303d
00000050: f73f 5d3d c84c 133e 7078 01bd 878b 653d
00000060: 328c 18be cbf7 ddbd 0242 bfbd e6c6 5abd
00000070: e707 61be b0c6 58be 2d1e a3be 5191 72be
00000080: a5dc c5be 4bf0 b9be b50f 5dbd eaf7 b2be
00000090: f6cf 8bbe 2b36 91bd a427 0a3d ea55 043e
000000a0: 08c9 193e 0225 a13d 0866 4a3d 993f 153e
000000b0: ba66 6b3d d3e4 1d3e 17b9 293e d94f b03d
000000c0: 563d 203d da9d 9c3d 53d1 9c3d 50b6 383d
000000d0: a67b 0abd f0d2 e43d 2d4f 293e fdac 0f3e
000000e0: 034e 153e eb1c 7c3d 06ad b63d c8c6 383e
000000f0: 7450 493d 1e78 303e 96fd 323e b9a6 173d
00000100: 617c be3d 09d4 f23d 59f7 0b3e 47c3 33bc
00000110: b178 d1bd 8932 00be a67d d33d 0340 103d
00000120: d24a 29be a4be 60be 9623 47be 3fc2 11be
00000130: 315a b4bd f1b2 47be 614e e5bc d08e ca3d
00000140: 3e8d 62be 28ca 86bd 8526 b23c c0d8 fc3d
00000150: dd29 9d3d dbcc ba3b 1c17 0e3e 92ee fd3d
00000160: e0ff 803c f7cf 29bc 6a44 763d 9d4e 163e
00000170: fdaa 2f3e 7949 acba f8df 4bbd cfcd 003e
00000180: 85b5 a4bc ddfa ab3d 2b31 aebd 1299 e9bc
00000190: 1198 94bd 1ce9 ef3c faf8 babe c4c6 79be
000001a0: d6db 54bd 77b9 10be cbda 8bbe c1d7 7dbe
000001b0: b9ed 47bd c114 4fbc 857d a3be d775 3bbe
000001c0: 4559 b63c 1e36 83bd 6ede 85be 4e2a 93bd
000001d0: ca36 84bd 2ac1 91bc cfb0 63bc 15c3 9cbe
000001e0: 492d cebc 28e4 403d d79d f83c 6879 78bd
000001f0: a277 46be eb66 e3bd 70d0 883d 5632 11bd
00000200: 3871 69be b172 e9be c515 a1bd 320c 07bd
00000210: 1506 f1be 85c0 12bf 473e f1bc 015c cfbe
00000220: ba4d 09bf 517d febe 2a57 abbd 93db 983d
00000230: 793a 6f3b 7726 f03b f2c5 50bd f231 90bd
00000240: 2d2d 4b3c 04a8 bc3d eb14 ecbc d550 6e3c
00000250: 2c29 9c3d c554 b93d 4d36 26bd 4150 8d3d
00000260: fa6e 23bd d509 92bd 4dae 01be ffa3 83bd
00000270: 3e85 7f3a b0bc ebbd acc7 70bd 84e0 8abd
00000280: 17c2 1fbe 79e6 62be d0ab 163d 7e84 1e3d
00000290: f0c4 a13d ecc5 90bd e48b 913d eefe c73d
000002a0: 1057 2a3e d1db e53d aacf c43e e1a1 9e3e
000002b0: bfec 273e b851 523e 21c6 1a3e cc97 4dbd
000002c0: ae21 f43c 4511 fbbc 8160 bdbd e80d 48bd
000002d0: 7e33 95bd 5cc1 aa3d 5b70 8d3d 304e 57bd
000002e0: 3829 68be 747a 4cbe 4821 12be b85f dbbd
000002f0: 8edf e6bc c229 24bd 2fd0 cebd 7fad dcbd
00000300: 8921 763c 4051 a03a c73d 023e 8238 313e
00000310: 32de 553e 6322 493e da1d 183e 55e6 223c
00000320: 00b8 a53c 50b3 6c3d 304f 1abe 21d0 01be
00000330: af3c 76bd 4cea 353d 57e1 5bbd 73e4 2dbe
00000340: 6f77 02be 7b8d 0bbe 72fe a43c 81e1 9b3c
00000350: c993 b73d 2510 60bd fa23 a53d bb48 50bd
00000360: 5b33 883c dde5 a83d 263f 533d b436 203e
00000370: 20bd cebe cbd6 89be 41fd 90bd 87ca fb3d
00000380: 98b7 573c ed30 81bd 5b03 5d3c fbc8 0cbe
00000390: 738a 29be 2ee2 fabd 031b 12be 9ee9 14bd
000003a0: c9df f3bc 4efa 9abd 832c a8bc 2c33 53be
000003b0: 807c 9ebd 27b2 6dbd 50fa af3d 689d a73d
000003c0: fd8c 5bbd 9c02 ca3c 9b95 9fbb 90c7 593d
000003d0: 58ea 30bb c8e5 a63e f92d 3c3e cbc9 0b3e
000003e0: b636 9f3d ecf3 c13d f5f0 a63d b913 fd3d
000003f0: d873 093e 4048 fd3c 7d74 03be 82e3 cd3d
-0.17997348 0.06784599 -0.21910964 -0.35434306 -0.12859818 -0.30891997 -0.2434073 -0.24966022
0.027495034 0.1093907 -0.10452679 -0.0025380785 0.12835063 0.10002545 0.063004635 0.15702882
0.087697275 0.08157265 0.011004391 0.043194443 0.05401608 0.14384758 -0.031609 0.056041267
-0.1489723 -0.108382784 -0.09338762 -0.05341234 -0.21975671 -0.21169543 -0.3185896 -0.23688246
-0.386449 -0.3631614 -0.053970058 -0.34954768 -0.273071 -0.0709041 0.03372921 0.12923399
0.15018094 0.07868387 0.04941371 0.14575042 0.057471015 0.15419321 0.16574512 0.0860898
0.039120995 0.07647295 0.07657113 0.04509574 -0.033809327 0.11173046 0.1653411 0.14030834
0.1458054 0.061551016 0.0891972 0.18044579 0.04914899 0.17233321 0.17479548 0.037024233
0.09301067 0.11856849 0.13668574 -0.010971851 -0.10228098 -0.12519278 0.103267 0.035217296
-0.16532448 -0.21947724 -0.19447169 -0.14234255 -0.08806265 -0.19501854 -0.027991476 0.098905206
-0.22124192 -0.06581527 0.021746883 0.12346029 0.076740004 0.00570069 0.13876003 0.12399019
0.01574701 -0.010364524 0.06012384 0.14678426 0.1715507 -0.0013144455 -0.04977414 0.1257851
-0.020106087 0.08397458 -0.08505472 -0.028515372 -0.07255567 0.02928596 -0.3651808 -0.2439223
-0.051967464 -0.14133249 -0.27315363 -0.24789335 -0.048810694 -0.012639225 -0.319317 -0.18306671
0.022259364 -0.064068064 -0.26146263 -0.07185803 -0.06455763 -0.017792303 -0.013897135 -0.30617586
-0.025168078 0.047092587 0.030348701 -0.060662657 -0.19381574 -0.111036144 0.06680381 -0.035448395
-0.22797096 -0.45595315 -0.0786548 -0.032970615 -0.47074953 -0.5732501 -0.029448641 -0.4049988
-0.53634226 -0.49704984 -0.083662346 0.074637555 0.0036503358 0.007328804 -0.050970025 -0.07040776
0.012400907 0.09211734 -0.028818568 0.014545639 0.076250404 0.09049372 -0.04057913 0.06900073
-0.039900757 -0.071307816 -0.12664147 -0.06427764 0.00097473327 -0.11510599 -0.058784172 -0.06781104
-0.15601383 -0.22158231 0.036784947 0.038700573 0.07898891 -0.070690006 0.0710676 0.09765421
0.16634774 0.11223567 0.38439685 0.3098288 0.16398905 0.20538986 0.15114643 -0.050193593
0.029801216 -0.030647883 -0.09246922 -0.048841387 -0.07285212 0.083376616 0.06906196 -0.0525648
-0.22671974 -0.19968587 -0.14270508 -0.10711616 -0.028182771 -0.040078886 -0.100983016 -0.10775279
0.015022644 0.0012231246 0.12718879 0.17306712 0.20885542 0.19642024 0.14855137 0.009942611
0.02022934 0.057788193 -0.1506927 -0.12677051 -0.060116466 0.044412896 -0.053681698 -0.16981678
-0.12740873 -0.1362819 0.02014086 0.019028427 0.08963735 -0.054702897 0.080635026 -0.05085061
0.01662605 0.08246968 0.051573895 0.15645868 -0.40378666 -0.26921687 -0.07079554 0.122944884
0.013166331 -0.0630816 0.01348957 -0.13748543 -0.1655672 -0.122501716 -0.14268117 -0.036355607
-0.029769795 -0.07567273 -0.020529037 -0.2062499 -0.0773859 -0.058031227 0.08592665 0.0818432
-0.053601254 0.024659447 -0.0048701293 0.053168833 -0.0026995149 0.32597184 0.18376912 0.13651197
0.07774107 0.094703525 0.08151428 0.123572774 0.13423097 0.03091824 -0.12837406 0.10053159

conv2.bias f4 [16]
00000000: d017 fbbd fcaa d5bc 594f 0d3e ae32 243e
00000010: 2bad 1c3c 9a55 ca3d 83ed 283e 5151 c23d
00000020: 4f93 523e a089 f63d 6b3a a3bd 5e7a 583b
00000030: 41a3 253e 44ed 6ab9 c385 813d 5211 82bb
-0.12260401 -0.026082508 0.137998 0.16034958 0.009562771 0.098796085 0.16496854 0.09488166
0.20564006 0.12037969 -0.07970127 0.003303192 0.16175558 -0.00022404367 0.06324341 -0.00396935

fc1.weight f4 [120, 256]
00000000: 7e2b 67bc f4d7 073c e447 78bd e73f 123c
00000010: 1ffb 33bc 9b10 4c3b 58c4 f3bd 9955 95bd
00000020: 40b2 d3bd 800b fabd e5ed 053e 1798 023e
00000030: ff94 c53d 240b 3ebe 5e97 f1bd bac9 1bbe
00000040: e2b0 23bd 5f74 f3bc 0d38 5dbd 7c17 fdbd
00000050: 47bc 45be f4b5 d03c c5ee 163e 8483 3c3e
00000060: 60b6 45bd 290a 14bc 696d 403c 4de0 9abd
00000070: db78 e83b ba9b 553d 5b4d 213e 7b58 05be
00000080: 7319 a1bd a09a bf3c b0e4 66bb 5359 623d
00000090: 6132 93bb 7f74 c9bc 908c 003d 51b1 1ebb
000000a0: 1a78 eabc f8b8 113e 7f78 0d3d a46a 65bd
000000b0: 3e10 08be 72aa a9bc abdb debd 3f13 82be
000000c0: f921 f43d 419c ab3d 184e d93d 8c38 c43d
000000d0: 63b2 be3d 83a0 a53d 0606 793c ade1 75bd
000000e0: 3cd4 0cbe 744f 38b8 12fa 393d 735a 83bd
000000f0: 822d 993d c686 cbbd bee0 acbd f76e 3ebe
00000100: eda4 0e3e a98d 343e a4f6 4e3e 19b8 273e
00000110: 0bf5 a8bd aee7 76bc 9568 d23d a27a 423c
00000120: d87e 22be ad00 75bd 351c d2bc 3af3 973d
00000130: 6240 cc3a a923 8abd f1ae 4b3d 41e4 8d3d
00000140: 4401 20bd fbf7 16bd a698 16bd 3ba7 04be
00000150: c985 313d 96b5 41bd 85f7 4a3c a839 02be
00000160: caf7 2abb 00b4 9a3d 91a5 833d 3a0f 01be
00000170: 4e8c d23b 1347 2e3d 886d acbc ae29 26be
00000180: f211 eabc 1cbb 573d eaef bf3c eb0d 80bd
00000190: 4e97 193e 7fe0 d53d 2bc9 653d b56a f9bd
000001a0: 6d22 e0bc 65cf 59bd a4d5 0cbc 1da1 083d
000001b0: be9e e73c c2ac 8ebc b814 223d 3774 093d
000001c0: 1440 82bc 5e47 d0bd 4aca 34bc 8e19 a8bd
000001d0: c7f3 b63c 36a6 0e3c e4ec 663d a53e 863d
000001e0: 3b6d d63d 7fdb 603b 8edd d0bd c163 b2bc
000001f0: 9be3 3fbd 041f 263d 54ac 1d3d 9879 bdbd
00000200: 27e1 923d 4cc9 25bd 1649 d8bb f865 d33b
00000210: 011a e0b9 bbdf eebd 427c 8b3d 5d86 663d
00000220: 9557 22be b9ee cfbd 56d8 ec3d 939e 2b3d
00000230: 452c 04be 4b3e a2bb fa1f 093d 93f5 58bd
00000240: 5dcb dbbd 8193 0abe 3403 b2bc 4145 91bd
00000250: d542 273c 1af6 30bd 9d2b a13c e118 e6bd
00000260: 032e 273e 671a 19bc 8134 563d 2102 16bd
00000270: ba61 41be c105 bdbd 2369 6b3c 5784 803d
00000280: 8bc8 26be d24a d5be 9ba8 9bbe d62b 16be
00000290: 1faa 983c 770e 34be 35bd fdbd 5837 57bd
000002a0: e899 b5bd 9616 b6be 6efd 34bd 77c7 4abc
000002b0: 22bc d8bd e5c8 93be 4c22 ba3d 1872 113e
000002c0: e018 29bb 0698 06bd 459e adbd 45b8 233a
000002d0: 449a 7fbb 71f8 7c3b 8e4a 1e3b fa01 fcbc
000002e0: 2eab fa3d e1e2 0f3c b39f b1bc 4d36 3bbe
000002f0: 4fea 7c3d 08f0 53bd ca85 a8bd 3bbd fbbd
00000300: f9fe 84bd 53d0 cabc 34a2 223d 3596 d03d
00000310: ae89 64bd f087 023d 7d06 083d 2c06 c7bd
00000320: 4245 b63d 40ee 48bd c952 873c 7eb5 cbbd
00000330: 2f84 0d3d d3b0 96bd bc8e 6bbd 7b60 1ebd
00000340: f409 b73d d4b3 3c3d 8275 f63c bd96 6b3d
00000350: 2f4b 0dbd b145 e0bc 9ccb 1ebe df0d ccbc
00000360: dc33 9fbd 87fa 71be d2ce 07be aeba 473d
00000370: afc1 85bd d54a 513d e60d 7ebd eb9f 213e
00000380: bc43 39bc 862b 8abc e997 353d 9a11 553e
00000390: 4942 f5bd 4f0c 72bd 85fc 833d ab76 89bd
000003a0: e2b2 65bd d13d 483d e945 aa3c dc43 523d
000003b0: 6d66 24be 5da7 2dbd c5a0 23be 475f 21be
000003c0: a2d3 8bbc 2255 25be aeb0 6cbe 718d c83c
000003d0: 1456 7cbd c0b1 2b3c 1856 28bd aef5 5d3d
000003e0: ab06 bc3c fd84 c8bd e39c 05be 64d4 e93d
000003f0: bd8d c7bd 15aa 6fbe 78e5 9ebe 60aa 8a3c
-0.01410949 0.008291233 -0.060615435 0.008926368 -0.010985165 0.0031137827 -0.11902684 -0.07291717
-0.10336733 -0.12209225 0.13079031 0.1275333 0.096475594 -0.18558937 -0.11796449 -0.15213671
-0.03996361 -0.029718576 -0.054008532 -0.12357995 -0.19310103 0.025477387 0.14739521 0.18409544
-0.04826963 -0.0090356255 0.011744835 -0.07562313 0.007094485 0.052150466 0.15752165 -0.13022034
-0.07866182 0.02338916 -0.0035231523 0.055260967 -0.0044920896 -0.024591682 0.03138405 -0.0024214576
-0.028621722 0.14230716 0.034538742 -0.056009904 -0.13287446 -0.020711157 -0.10881742 -0.2540531
0.11920542 0.083794124 0.10610598 0.09581098 0.09311368 0.08087256 0.01519919 -0.060029674
-0.13752836 -4.3943015e-05 0.0454045 -0.06413736 0.07479383 -0.09937815 -0.08441304 -0.18597017
0.13930102 0.17632164 0.20211273 0.16378821 -0.08249863 -0.015069885 0.10273854 0.011870058
-0.158687 -0.059815098 -0.025648216 0.07419439 0.0015583152 -0.06745083 0.049727384 0.069283016
-0.039063707 -0.036857586 -0.03676667 -0.12954418 0.043340478 -0.047292314 0.012388115 -0.12717307
-0.0026087635 0.075538635 0.06428064 -0.12603465 0.006425417 0.04254825 -0.021048322 -0.16226837
-0.02857301 0.052668676 0.02342983 -0.06252655 0.14999124 0.1044321 0.05610005 -0.12178556
-0.027360165 -0.053176302 -0.008595858 0.033356775 0.028273936 -0.017416362 0.03957054 0.033558097
-0.015899695 -0.10169862 -0.011034558 -0.08207999 0.022333039 0.00870662 0.05637826 0.06554917
0.10470053 0.0034310517 -0.10198508 -0.021776082 -0.04684792 0.040556923 0.038494423 -0.09251708
0.07171851 -0.040475175 -0.0066005094 0.0064513646 -0.00042743984 -0.11663767 0.0681081 0.056280483
-0.15853722 -0.101529546 0.115647 0.041899275 -0.12907512 -0.0049512736 0.03347776 -0.052968573
-0.10732148 -0.13532831 -0.021730043 -0.07093287 0.010208805 -0.04320345 0.019674117 -0.11235214
0.16326146 -0.009344674 0.052296165 -0.036623124 -0.18884936 -0.09229613 0.014368328 0.06275242
-0.16287439 -0.41658646 -0.30402073 -0.1466516 0.018635808 -0.17583643 -0.12389604 -0.052543014
-0.08867246 -0.35564107 -0.044187002 -0.012376658 -0.105827585 -0.28864208 0.09088573 0.1420368
-0.002580218 -0.032859825 -0.08477453 0.0006245415 -0.0039001862 0.003860023 0.0024153325 -0.030762661
0.12239681 0.0087821195 -0.021682596 -0.18282433 0.06174689 -0.051742584 -0.08228643 -0.12291952
-0.06493945 -0.02475754 0.03970547 0.101849 -0.055795364 0.03186792 0.033209313 -0.09717974
0.08899929 -0.049055338 0.016518967 -0.09946726 0.03454989 -0.07357945 -0.05750917 -0.03866623
0.08937445 0.046069935 0.030085329 0.057516802 -0.03449553 -0.027376981 -0.15507358 -0.024908958
-0.07773563 -0.23630725 -0.1326249 0.048762016 -0.06531083 0.051096756 -0.062024973 0.1578366
-0.011307653 -0.016866457 0.044334326 0.20807496 -0.119755335 -0.05909377 0.06444649 -0.06712087
-0.0560788 0.048887078 0.020785289 0.051334247 -0.16054697 -0.04239594 -0.15979297 -0.15759002
-0.017068688 -0.16145757 -0.23114273 0.024481507 -0.061605528 0.010479391 -0.04109773 0.054189377
0.022952398 -0.097909905 -0.13048129 0.114174634 -0.09743831 -0.23404725 -0.31034446 0.016926944

fc1.bias f4 [120]
00000000: 1f4c 4a3e 6b94 24bb 684a 973d 800a 17bd
00000010: b32e 813d 7966 28be a4c6 d5bd 5650 2cbd
00000020: ed3d 73bd b57e a4bd 482b cfbd 0ad7 813c
00000030: fe27 513e 7de8 a7bb 5777 f3bd 3db5 843c
00000040: b7b3 443d 8927 743d 9ca6 bb3d 6589 09bd
00000050: 7bd6 d33c 1a01 fd3d d2a5 36bd d492 8cbc
00000060: c71a 0e3d 13ff 173c 2b37 01bc 4198 1dbe
00000070: 727c 81bd 2057 9b3c 61b6 3b3e d02d 9fbd
00000080: 0eb9 aebd 7521 ef3d 4e0f 9f3c 9c38 873d
00000090: 12f5 29bd 3a9b 5bbd cf30 1c3d c512 2cb9
000000a0: 64cc 063d 4bc0 c23c a8ec b5bd 41e7 353e
000000b0: c268 463c 08cd 863b f3bd 9bbb d9c9 5ebd
000000c0: 7265 fa3b ad54 24be 59fe 003d 79c7 89bd
000000d0: 9c9d 103d 43ce 223e 6832 033e 829f 703e
000000e0: d13f 413e ce84 9fbb 92b7 3f3e 7ef8 e2bd
000000f0: 5e73 d93d f4ef 983d dc57 e2bd 5c82 c1bc
00000100: 9834 603d 8bcd 20bd 13f7 4a3e 44fa e93c
00000110: dc91 efb8 fceb 55bb fee2 11bc 1d86 d13d
00000120: f988 17be 1434 553e 968b 6bbd 98cd 15bd
00000130: 47c1 e1bb 85d9 93bd 36bf 43be 4d7d dd3d
00000140: 623d 03bc da6c f6bd 5cca 113e e0c8 d03c
00000150: d9fe 39bc 23d2 d83d 9c34 a0bd 55ca 2bbd
00000160: 2db8 8dbd 9336 c13c 915e a8bd 9799 e0bc
00000170: d060 dcbd db89 ab3d 35f6 c4bb 61f7 183c
00000180: 8da1 cebc 0c8b 193e 7136 953c 6c51 15bc
00000190: 683b b7bd afa0 41bd d0bc e83c ec92 07bc
000001a0: 3d55 3c3c a612 c83c 72db b7bd f348 88bd
000001b0: 622a db3d 7102 c7bd 0d7f d0bc 7401 a8bc
000001c0: 681b 7ebd 5f60 f33c 62f5 7dbd 8121 ba3d
000001d0: 4953 403d 56a2 eb3d 85bf 0e3d c242 ae3d
0.197556 -0.0025112878 0.07387239 -0.036875248 0.06307735 -0.1644534 -0.10438278 -0.0420688
-0.05938523 -0.0803198 -0.10115677 0.015849609 0.20425412 -0.0051241503 -0.11887997 0.016199702
0.048022952 0.059608016 0.091626376 -0.033578295 0.025859108 0.12353726 -0.044591732 -0.017159857
0.034693506 0.009277123 -0.007886688 -0.15390112 -0.06322564 0.018962443 0.18331291 -0.0777241
-0.0853139 0.11676303 0.019416478 0.06602594 -0.041493483 -0.053614832 0.038132485 -0.0001641019
0.032909766 0.023773333 -0.08883029 0.17763998 0.012109937 0.004113797 -0.0047528683 -0.054391716
0.0076414878 -0.16047926 0.031492565 -0.067274995 0.035306558 0.15898995 0.12812197 0.23498347
0.18872 -0.0048681265 0.1872237 -0.110825524 0.10617708 0.074676424 -0.11051914 -0.02362173
0.054737657 -0.03925852 0.19820814 0.028561719 -0.000114235765 -0.0032641878 -0.008904217 0.10230658
-0.14798345 0.20820647 -0.057506166 -0.036573023 -0.0068894955 -0.07219223 -0.1911591 0.10814915
-0.00801024 -0.120324805 0.1423735 0.02548641 -0.011352264 0.105869554 -0.078225344 -0.041941006
-0.06919894 0.023585593 -0.08221162 -0.027416987 -0.10760653 0.08375903 -0.0060107955 0.0093363235
-0.025223518 0.14994448 0.018214436 -0.009113651 -0.08946878 -0.04727238 0.028410345 -0.008274775
0.011494932 0.024422955 -0.08977403 -0.06654539 0.10701443 -0.097172625 -0.025451208 -0.020508505
-0.062037855 0.02970904 -0.062001593 0.090884216 0.046954427 0.115055725 0.034850616 0.08508827

fc2.weight f4 [84, 120]
00000000: cc51 ea3c 2c05 41bd cd08 a93d 8cfc de3c
00000010: 72b0 583d 7914 d73c d261 e2bd 666d b1bd
00000020: f916 f53d 327b 8a3d fd5a 8b3d c4e9 5f3d
00000030: 95e1 143d 64c6 693d 943a c73d ffbd d6bd
00000040: 4a5f 903c 5d3c e53d 0b40 3b3c ee3c 0cbd
00000050: bbb5 f53d 469f 83be e53f 83bd 1591 193e
00000060: 5424 cbbd 30ed 16bd c019 923c 2e30 723e
00000070: 0ffa af3c 5b31 b6bd abcb 023e 95be d43d
00000080: 844a 85bd e2fc 253d 078b 0a3e 6408 263e
00000090: dfe6 ce3d b27a 55bd 2dd3 3b3d 4503 f1bd
000000a0: 1aad 783d 5afb 793c 12d9 22bd 0758 d5bd
000000b0: f3e9 10bc ea71 22be 50fb 8dbc 904b 2f3d
000000c0: 5c36 623d 69af d43d 2f84 323e b042 453d
000000d0: 9c50 b93d 88f5 81bd 38cd cbbd 7d9c f13d
000000e0: b556 c6bd 40c0 2b3e 8cef 453d cf60 59be
000000f0: 5d36 90bb 6626 4b3e ec9d 6c3d cf92 b3be
00000100: fa85 c33d 6fc4 d8bd d2bb b83c f1a3 bcbd
00000110: 0eae c63d 0b0c d23c db56 d2bd 988f 2f3d
00000120: 69cd 87be 4aab 88bd 69df c4bd 927b 243d
00000130: 89f0 b0bc f020 35be dc0e dc3c 635f db3d
00000140: 43c8 163e 0602 b33d 37f0 f23d c487 3dbd
00000150: d7d9 61bd 5fad ccbd 88c6 b43d 911f 90bd
00000160: aefc 893d 0516 6abc e572 cc3d 3fa0 033e
00000170: 4ec4 983d b620 abbc 284a 3a3b 4f42 e3bd
00000180: 3bf8 703d 3eca 0e3e ff58 403d fef8 173e
00000190: b02a 2ebe 1cee 54be 98a5 89bc 0acc 93bd
000001a0: 8576 43bd da60 5d3d ceca 8e3d 20b7 eabd
000001b0: 6537 ddbc 7da0 8abd c72c 143e 3ba5 d73d
000001c0: de2b c53d b909 123e e691 52bd dd09 8fbd
000001d0: dd13 133d c386 e63c 4749 96bc 854e a7bd
000001e0: 7602 5dbd 71d5 a1bd 1469 0e3e b709 fbbd
000001f0: efb9 f13d 12bb d93d 5708 fb3d 9d02 0abc
00000200: 3485 31bd 10a5 7839 00cc abbd 0469 88be
00000210: 47ba 38be 44de c7bd 8b4f 253d b230 ff3c
00000220: db30 8abb 64ac 02be 1935 a93d 3675 a9bd
00000230: cbb2 8f3d 4290 c1bc a5d9 a9bd 9e82 7ebe
00000240: ba88 253e 3bd8 a9bc ed91 a43d b954 c4bd
00000250: 4f9e 673e c79c 633e 50b7 c1bd 390c 31bd
00000260: e436 8abc 3951 4e3d 7796 f03d 16eb 97bd
00000270: a78a bf3d 1d61 633e 2894 c9bb 848b 9a3d
00000280: dc19 ea3d f297 1dbd a71a a73d 4c19 47bd
00000290: 274c a3bd bc5c cd3d d0b9 b8bd 5673 ff3d
000002a0: be68 863d 7183 003c 8701 53bd 542b 00bd
000002b0: 2d1d debd d751 d3bd 90c1 cabd fc33 0bbd
000002c0: 2667 91bd 5b48 efbd 9ba5 d53d f5fb 49be
000002d0: 732b 23be cce5 da3d 2572 8e3d e1ea debd
000002e0: da09 3fbe 61ba 93bc 27b2 26be 1313 56be
000002f0: ac1f 6f3d bc74 353e b533 29bd 469a 0f3e
00000300: 8877 3a3e db88 cfbc 522f 4cbd 464d 843d
00000310: d44f a7bb ce6f 443c 2571 da3d b3fa 07be
00000320: 1db0 27be 56a3 0c3e 652b 3e3e 1e9b 3ebd
00000330: 6a43 093b 6bf5 1cbe ab8e 5fbd d694 0d3c
00000340: 86c1 633c c50e 173d 8013 d63d 76fa 13bd
00000350: 575a fb3b 456e d5bd 71da 41bc 12a0 eabd
00000360: 1fcc 103d c967 b03c 1a24 a939 5a87 e73d
00000370: 5842 733c 2da5 463e 4686 863d a110 34be
00000380: 6e9f 97bd 1cc8 5e3d af21 863d fa52 08bd
00000390: 89f1 f5bd b031 603e 976f e6bc 15d4 fc3c
000003a0: f79c 75bd 7a67 353d 4640 bd3d b5a3 aabb
000003b0: 160f 273e 7837 06be ba5e 60bd d1e1 6dbd
000003c0: 768a a33c 653c 643d 5210 2b3e e553 09be
000003d0: 9996 af3d 310d 553d 9bfb ad3c c608 94bd
000003e0: 7beb b4bd 4a04 16be 046e f63c 9037 103e
000003f0: 17b9 103e 8182 3e3e 4fe7 35be 8589 de3d
0.028603457 -0.047124073 0.08253632 0.027220033 0.052902646 0.02625488 -0.11053814 -0.08663444
0.11967272 0.06761779 0.06804464 0.054666296 0.036347944 0.057073966 0.0972797 -0.10485458
0.017623562 0.11193154 0.011428843 -0.034237795 0.11997553 -0.25707453 -0.06408671 0.1499675
-0.099190384 -0.036847293 0.017834544 0.23651192 0.021481542 -0.088961326 0.12773006 0.10387913
-0.06508353 0.04052437 0.13529597 0.16214138 0.10102629 -0.052118964 0.04585569 -0.11768202
0.060711958 0.015257681 -0.039757796 -0.104171805 -0.00884484 -0.15863767 -0.01733175 0.04279667
0.055227622 0.10385019 0.17433237 0.0481593 0.09048578 -0.063456595 -0.09951252 0.11797426
-0.09684507 0.16772556 0.048324153 -0.21228336 -0.004401012 0.19838867 0.057767794 -0.35072944
0.095470384 -0.10584342 0.022550497 -0.09210957 0.09701167 0.025640508 -0.102704726 0.04286155
-0.26523903 -0.06673296 -0.096129246 0.04015691 -0.021599071 -0.17688346 0.026862554 0.10711553
0.14724831 0.0874062 0.118622236 -0.046272054 -0.05513939 -0.099940054 0.08826929 -0.07037271
0.06737648 -0.014287476 0.09982852 0.12854098 0.07459317 -0.020889621 0.0028425548 -0.11096632
0.05883048 0.13944337 0.046959873 0.14841077 -0.17008471 -0.20793957 -0.016802594 -0.07216652
-0.04772045 0.054047443 0.06972276 -0.114607096 -0.027003953 -0.06768892 0.14470206 0.10529562
0.096275076 0.14261521 -0.05140867 -0.06984303 0.035907615 0.028140431 -0.018345488 -0.08169273
-0.053957425 -0.07902039 0.13907272 -0.12257712 0.11803042 0.10631384 0.1225745 -0.008423475
-0.043339923 0.00023712614 -0.08388519 -0.2664262 -0.18039809 -0.09759191 0.04035906 0.03115115
-0.00421725 -0.12761074 0.08262081 -0.08274309 0.07016524 -0.023628358 -0.082934655 -0.24854514
0.16165438 -0.02073299 0.08035646 -0.09586472 0.22618984 0.22227775 -0.09458792 -0.043224547
-0.016871877 0.05037043 0.11747449 -0.07417886 0.09352618 0.22205015 -0.006151695 0.07546142
0.114307135 -0.038474984 0.081593804 -0.04860811 -0.07973509 0.10027453 -0.09019816 0.124731705
0.06562947 0.007843838 -0.05151513 -0.03129132 -0.108454086 -0.10318344 -0.099002 -0.033985123
-0.07099752 -0.116837226 0.10431977 -0.1972502 -0.15934543 0.106883615 0.06955365 -0.10884643
-0.18656102 -0.018033208 -0.16278897 -0.20905714 0.058379814 0.17720312 -0.041309077 0.14023694
0.1820966 -0.025333812 -0.049849816 0.06460051 -0.005105952 0.011989547 0.10666112 -0.13279228
-0.16375776 0.13734183 0.18571241 -0.04653465 0.0020944723 -0.15327995 -0.05457942 0.008641442
0.01390112 0.03687932 0.10452938 -0.03612753 0.0076706815 -0.10421423 -0.011831866 -0.11456312
0.035350915 0.021533864 0.0003226109 0.11305113 0.014847361 0.19398947 0.065685794 -0.17584468
-0.07403456 0.054390058 0.065493934 -0.033282258 -0.1200896 0.21893954 -0.028129382 0.030862847
-0.059964146 0.044288136 0.09240775 -0.0052075037 0.16314349 -0.13107097 -0.05477784 -0.058076683
0.019963484 0.05572166 0.16705444 -0.1341091 0.08573646 0.052014533 0.021238139 -0.07228236
-0.08833977 -0.14650074 0.030081756 0.14083695 0.14133106 0.18604471 -0.17764018 0.108660735

fc2.bias f4 [84]
00000000: 15e7 33bd 4b7f 6cbe dd76 173e 6ec2 6fbd
00000010: afad 8c3d 7604 03ba ff70 a03d e88e 20be
00000020: dfd5 ba3d 4651 de3c e025 babd cd61 8cbd
00000030: d450 103e 5e50 463d 4111 b1bd 6da8 393d
00000040: 09c5 b73d ac6c ad3d f04a 293e ae52 723a
00000050: 8a43 cf3d 347d 85bc 7af9 093e 1915 fbbd
00000060: 3242 9a3a 2ddc 873e f725 473c 93a4 f63d
00000070: 5717 993d 3982 3a3a bb53 dd3c ef8a fd3d
00000080: d37e 3aba 3b7f 353c defd 163d 2381 37bd
00000090: 2a7c 12bd 9c30 8c3e 8f13 213e 5e87 833d
000000a0: 4163 3a3e 8b77 5fbd d6cc d43d 8a24 a4bd
000000b0: b6e2 963d d2eb 113e d46d 31bd 7549 163e
000000c0: 5359 adbc 93d8 80bd 5e3f 683e 050f 0f3d
000000d0: 19a2 033d 9f71 9e3d de6d 5ebd 3c2d 3a3e
000000e0: 9303 413d 0404 fdbd 311c f0ba 9bcc 8bbc
000000f0: 7eb7 e2bd cc11 6ebd 2cfe aa3d 6c5f e33c
00000100: 8f7c 90bb 3bf5 473e 30c3 393e 2ddf d33d
00000110: 5597 8cbd 8a8b 68bc e74f c2ba 9c87 bbbd
00000120: 192f 0d3e 975a 88bd f136 873d 0e59 bebc
00000130: c959 01bd f29f b73d 0d9f b13d 1f99 9f3d
00000140: 9c1e 273e f552 733d e707 d4bd 7bd9 a6bd
-0.04392155 -0.23095433 0.14791436 -0.058535032 0.06869065 -0.0004997918 0.07834052 -0.15679514
0.09122824 0.027138364 -0.09089255 -0.068545915 0.14093333 0.048416488 -0.08645869 0.04532664
0.08973128 0.08467993 0.16532493 0.00092438876 0.10120304 -0.016295053 0.13474074 -0.122598834
0.0011768995 0.26535168 0.012155048 0.12043109 0.07475155 0.00071147416 0.027017465 0.12380015
-0.0007114235 0.011077697 0.0368632 -0.04480089 -0.035762943 0.27380836 0.15730117 0.064223036
0.18201925 -0.054557364 0.10390632 -0.08014782 0.073674604 0.14250115 -0.04331763 0.14676459
-0.021160757 -0.06291308 0.22680423 0.034926433 0.03213701 0.07736515 -0.054303996 0.18181318
0.04712255 -0.123542815 -0.0018318949 -0.017065337 -0.110701546 -0.05812244 0.08349261 0.027755462
-0.00440938 0.19527142 0.18140864 0.10345302 -0.06864802 -0.014193425 -0.0014824838 -0.09156725
0.13787498 -0.06657904 0.06602276 -0.023235824 -0.031579766 0.08966054 0.08672915 0.077928774
0.1632027 0.059405286 -0.1035307 -0.0814695

fc3.weight f4 [10, 84]
00000000: 7e79 8a3d fe96 99bc 0f65 e2bd 0e2a 283e
00000010: daa5 bb3b 9f0e 0b3e e203 5fbe 86aa 5ebe
00000020: 8cd9 07be 4ece 46bd d7c2 08be 1250 303d
00000030: a822 50ba e4cc 98be 14d9 01be e141 6ebe
00000040: a0c9 8a3d 95ae 503e 33d9 08bd f2fb 15bd
00000050: 335c 0bbc a3bb f83c 567a b6be 6f4a 38be
00000060: 0332 73be 1d15 3bbe 1ab8 0e3e f9d3 6c3d
00000070: 352f 8a3d 674f 1ebe 0746 69be 71e5 2abe
00000080: 9d6f fe3d ca1b 3fbc 4423 123d 3a22 29be
00000090: 9650 043e 1293 58be 28a9 4bbe c478 bcbd
000000a0: 0ec0 2a3e c743 aa3d 0bb0 a0be 31ce 103c
000000b0: abed 00be bad3 bebb 4496 273e 579b 4fbe
000000c0: c57e ae3d f8fd aebc 87fa 6ebe 969f 59bc
000000d0: ae71 8dbc a45c 01bd 40cf 15bd 8c07 42bd
000000e0: 6f38 1c3e c3bc 4d3e 1bef 0f3d bda9 8d3d
000000f0: 73f5 6abe 69d7 b93c 93ae 033e f477 cb3d
00000100: 34e6 38bb 1351 243d 0c35 cf3d 3d88 9b3d
00000110: fc3c c9bd 08e2 3cbe 1eab 55be 2291 4f3e
00000120: 6398 233e 84f9 193e e11a 83be 2fb5 ddbb
00000130: 0a1b 43bd bf20 1dbe e2d3 5d3d 4693 05be
00000140: 6daa ab3d 404a cabc 516c 1c3e fb7c 00be
00000150: 01e7 99bd d977 8b3e f47a 04be 7ab4 0f3e
00000160: 70b6 aabb 3a42 843c fe69 dc3c 8a8c c73d
00000170: 5b3b 1cbe 5c1e 6339 e071 b03d b956 01be
00000180: da7f 373d ab24 fe3d 3b84 183e 4253 753d
00000190: e311 8cbe 4370 19be 6892 773c cc4e e9bb
000001a0: f0ec 22be 1375 653d ca99 653d 9f41 41bd
000001b0: 148e 45bd 0970 a6be 0513 dbbd 16d4 98be
000001c0: ecad 173e d822 21be 7cd4 f4bd 41c7 cbbe
000001d0: d00d 9c3d c1d3 cbbe f316 37bd 3527 ac3d
000001e0: be05 81be a373 c9bd d803 13be 6f70 0a3e
000001f0: 51eb ecbd 93cd a43d 2617 bf3c 6bb4 67bb
00000200: 9621 ebbe d509 eebc f2e2 8ebd 8159 64be
00000210: 3758 20be 9cd3 303e 9eb8 cd3c 056b 86be
00000220: c0fa bbbb e340 24be f2ee c43d 6db6 64bd
00000230: ce6f 983d a2c6 3abd 58a3 da3d 338c d7bd
00000240: 1eeb 423e fac6 c33d 42e2 1e3e 7278 1fbe
00000250: e346 d4bd 717f 90be 97bc 0dbe 9b88 043e
00000260: e0df 1bbe a5e8 afbe deb8 0abe 30a7 113e
00000270: 4377 623d 4958 06bd 50f8 50be 96b2 513e
00000280: dd57 3bbe 4c4d 733d ee74 35be 7ea6 723e
00000290: 60e8 7ebd 2e6f 92be 2073 38bd a0dd fe3d
000002a0: 194e 673b 45fa 523e 1521 d9bd ec24 56be
000002b0: 099d 3cbe 5d32 82bd b002 56be f024 083d
000002c0: 6afc 0abe fb8b 783e 388f 493c 8e8c 2d3c
000002d0: 882c 003e ce8d 91be a6a8 423d 2ada 2b3e
000002e0: c31b 6d3d ca59 d4bd 3183 b73d 9e9e 6abc
000002f0: 9e78 ca3d 45d8 163d d71c d83d fa79 5e3d
00000300: a058 cabd fb2b c4bd abae 093e 1644 1d3e
00000310: e6f5 1cbe d51a 9dbd 45ec acbc 5289 4d3e
00000320: fdfb 37be ad65 50be e866 863d 891e 023e
00000330: a6e8 983d d208 74bd 43ce c03c 817b 21ba
00000340: 49d0 2e3c e264 00bd e470 babd e232 05be
00000350: d12c 0abe 55bc f23d 08cc eabd fe6e 87bd
00000360: 3ee0 c7bc dd45 c83d d699 a43d 98f0 8cbd
00000370: 3aa3 d0bc a36a bd3d 2825 f33a 41f4 ba3d
00000380: 4b97 10bd 779d 24be 9374 c3bd b598 d43d
00000390: 401b 97bd aecd 7ebc f398 183e e467 28be
000003a0: 13ca da3d 77c2 0cbd 4ec6 073e 1b35 67be
000003b0: 7e1e 02bd 7420 ddbc f575 0dbe cd1b 6bbe
000003c0: 35d2 8bbe fbcf d0bd cf8d 59bd 33ca d7bd
000003d0: d717 b2bd 263e 2cbe eadb 84bd c486 d53d
000003e0: 07cd c3bc fa4c b0bd b396 c1bd efde fc3d
000003f0: 5cd2 cbbd ee73 28be 12f2 a6bd d895 57be
0.06761454 -0.018748756 -0.11054432 0.16422293 0.005726558 0.13579796 -0.21778825 -0.21744737
-0.13266581 -0.04853659 -0.13355576 0.04304511 -0.00079397345 -0.2984382 -0.12680465 -0.23267318
0.06776738 0.20379098 -0.033410262 -0.036617227 -0.008505869 0.03036291 -0.3564021 -0.17997144
-0.23749547 -0.18269773 0.13937417 0.05781934 0.06747285 -0.15459977 -0.2278062 -0.16689087
0.12423632 -0.01166434 0.035678163 -0.16516963 0.12921366 -0.21149853 -0.19888747 -0.09202722
0.16674826 0.08313709 -0.3138431 0.008838222 -0.12590663 -0.0058235796 0.16365916 -0.20274101
0.08520273 -0.021361336 -0.23337756 -0.013282677 -0.01726612 -0.03158249 -0.036574602 -0.04737048
0.15255903 0.20091538 0.035140138 0.06917141 -0.22945194 0.022685723 0.12859564 0.099349886
-0.0028213384 0.04011638 0.1011754 0.07594345 -0.09826085 -0.18445599 -0.20866057 0.20270208
0.159761 0.15036589 -0.25606444 -0.0067659835 -0.04763321 -0.15344523 0.054157145 -0.13044462
0.083821155 -0.024693608 0.15275694 -0.12547676 -0.075147636 0.27239874 -0.12937528 0.1403369
-0.0052097365 0.01614486 0.02690601 0.097436026 -0.15257017 0.00021659717 0.0861547 -0.12630738
0.044799663 0.124093376 0.14894192 0.059893854 -0.27357396 -0.1498423 0.01511059 -0.007119989
-0.15910697 0.056019854 0.056054868 -0.04718172 -0.0482312 -0.3250735 -0.10696987 -0.2984931
0.1481244 -0.15735948 -0.11954591 -0.39800456 0.07619822 -0.39809993 -0.04469962 0.08405916
-0.25199693 -0.09836509 -0.14356935 0.13519453 -0.115683205 0.08047023 0.023326468 -0.003535534
-0.45924062 -0.029057423 -0.0697688 -0.22299768 -0.15658651 0.17268223 0.025112446 -0.26253524
-0.005736679 -0.16040377 0.09615888 -0.055838037 0.074432 -0.045599587 0.106756866 -0.10524788
0.19035003 0.09559436 0.15515998 -0.1557329 -0.10365083 -0.2822223 -0.13841473 0.12942736
-0.1522212 -0.3435718 -0.13547084 0.14223933 0.055289518 -0.03279904 -0.20407224 0.20478281
-0.18295236 0.059399888 -0.17720386 0.23696324 -0.06223333 -0.28600448 -0.045031667 0.12444615
0.0035294353 0.20603283 -0.10602013 -0.20912522 -0.18419279 -0.06357262 -0.20899463 0.03323835
-0.13572851 0.24272148 0.012302212 0.010592593 0.12516987 -0.284285 0.047524117 0.16782442
0.057887804 -0.103686884 0.0896057 -0.014320044 0.09886287 0.036827344 0.10552376 0.054315545
-0.09880185 -0.09578701 0.13445537 0.15358004 -0.15328178 -0.076711334 -0.021108756 0.20071915
-0.1796722 -0.20351286 0.065625966 0.1270696 0.07466249 -0.059578724 0.023535853 -0.0006160066
0.010669776 -0.03134621 -0.091035634 -0.13007692 -0.13493659 0.11852328 -0.11464697 -0.06612967
-0.02439892 0.0977895 0.080371544 -0.06881827 -0.025468457 0.09248855 0.0018550502 0.09128619
-0.035300534 -0.16075693 -0.09543719 0.10380689 -0.073782444 -0.015551968 0.14902095 -0.16445881
0.10683074 -0.034365144 0.13259241 -0.22578852 -0.03176736 -0.026993014 -0.13814528 -0.22959824
-0.27308813 -0.10195919 -0.053113755 -0.10536613 -0.08695953 -0.16820583 -0.06487258 0.10426095
-0.023901476 -0.08608432 -0.09452572 0.12347209 -0.09952232 -0.16450474 -0.0815164 -0.21053255

fc3.bias f4 [10]
00000000: 0ed4 eebd 6f17 16be b072 82bb 3798 953c
00000010: d4bf 1fbd 05b5 f6bd f342 a2bd 54a1 6fbd
00000020: f5a8 a83e 6d2b 243d
-0.1166154 -0.14657377 -0.003980957 0.018261058 -0.0390013 -0.120462455 -0.07922926 -0.058503464
0.32941404 0.040080477
